test_outputs/checkpoints/best_model.pth (torch, 51133 bytes, 2 tensors)

1.weight f4 [4, 3072]
000000 46 65 9e 3c 82 f2 07 3c ed c5 0a bb e5 ff 50 3c
       0.0193354 0.008297564 -0.0021175102 0.0127563225
000010 a0 59 e8 bb 44 5b b0 3c 61 03 2f bc 39 30 3d 3c
       -0.0070907623 0.021527894 -0.010681958 0.011547142
000020 86 57 af 3c bb 86 4e 3c cb b4 03 bc d6 64 a7 bb
       0.02140404 0.012605364 -0.00803871 -0.005108456
000030 5e 00 88 bc fa 10 2f bc e6 5c 03 bc c8 55 8a 3b
       -0.016601738 -0.0106852 -0.008017754 0.0042216517
000040 3b e8 7c bc 6c 7f ac 3b bb c9 e4 bc d3 99 5a 3c
       -0.015436227 0.0052642133 -0.027928224 0.013342339
000050 26 57 11 bc 4b 5f d3 bc 5d df 8b bc 99 b9 61 3b
       -0.008870875 -0.025802275 -0.017074281 0.00344429
000060 5e 00 93 bc 1e 49 33 bc b4 bf 3f 3b 84 78 98 3c
       -0.017944511 -0.010942725 0.002925855 0.018612154
000070 37 c2 25 3c 71 66 d2 bb 81 49 25 3c 8f 29 bf 3b
       0.010117105 -0.0064209034 0.0100883255 0.0058338116
000080 4d 68 37 bc c2 f0 f8 3c ad 67 58 3c 51 bf 3c bc
       -0.011194301 0.03038824 0.013208312 -0.011520223
000090 18 87 43 3b b7 ca 5b bc fb 76 1f 3b af 5b 0e bb
       0.002983516 -0.01341503 0.0024332392 -0.0021722128
0000a0 82 91 c9 3b 33 67 cf 3b b9 d4 be 3a b0 ef 61 3a
       0.006151379 0.006329441 0.0014559246 0.0008618785
0000b0 a4 f2 a2 3c 12 c4 9b 3b 9a 1e 19 3c 9e 80 91 bb
       0.01989109 0.004753598 0.009345675 -0.004440381
0000c0 55 c9 1c bc fe d6 7d bc b7 b5 05 bd 5b 9e 27 3c
       -0.009569486 -0.015493153 -0.032644 0.010230626
0000d0 7f 8f 7a bb be 32 81 3c 50 40 f8 bb f0 1d 15 3c
       -0.0038232503 0.015771266 -0.007576026 0.009101376
0000e0 f7 33 90 3c 49 cb df bc 9a e5 a1 bc fd 4d 52 ba
       0.017602904 -0.027318614 -0.019762803 -0.00080224854
0000f0 69 a2 09 bc 80 32 78 3c d7 9d ac 3c 73 46 20 bb
       -0.008400538 0.015148759 0.021071358 -0.0024456054
000100 1c 3d 9c bc 58 35 36 3c c4 9f 19 3c 15 60 3a bb
       -0.019072108 0.011121117 0.00937647 -0.0028438617
000110 de ff e8 bb c9 c3 d3 bb 52 c0 5c 3c 73 7f 57 3c
       -0.00711058 -0.0064625484 0.013473587 0.013152945
000120 67 f3 5d 3c 2f 32 52 3c 5d 0e 04 bb 47 4d 32 3c
       0.013546801 0.0128293475 -0.0020150163 0.010882682
000130 93 2f 1d bb 14 ca d3 3a 4d 74 96 bb 02 a2 98 bc
       -0.0023984655 0.0016158246 -0.004591501 -0.018631939
000140 30 b5 96 3c 9b 97 bb 3c c0 96 0b bb 78 75 8b 3b
       0.018396944 0.02289944 -0.002129957 0.0042559467
000150 9e b7 3a 3c 73 f4 3f bc 96 b1 3c 3b e7 a6 c6 bc
       0.011396317 -0.011715996 0.0028792373 -0.024249507
000160 31 e7 a1 bc 6a 76 29 3c 4b 14 80 bc d5 ea e6 3c
       -0.019763561 0.0103431735 -0.015634676 0.028188149
000170 f5 1d 4c 3c 82 ff ca bc 1b 79 e6 3a 91 83 c7 bb
       0.012458314 -0.024780039 0.00175837 -0.006088682
000180 e1 18 8d bc 72 a4 72 3c d7 18 46 3c a2 9b 95 3c
       -0.017223777 0.014809715 0.012090883 0.018262688
000190 8c ee b2 3a 28 48 a3 3c 33 55 0a 3b 66 18 37 3c
       0.0013651415 0.019931868 0.0021107912 0.011175251
0001a0 6e f6 82 3c bc aa 8f 3c 4a 80 84 3b 46 6a 40 bb
       0.015986647 0.017537467 0.0040436136 -0.002936022
0001b0 45 84 1f 3c ca ae 9b 39 97 d9 59 ba 02 3e 38 3c
       0.009736125 0.00029694132 -0.00083103165 0.011245253
0001c0 27 54 be 3b 7b 0a ee bc d1 76 45 bc c5 86 07 3c
       0.0058083716 -0.029057732 -0.012052254 0.008271878
0001d0 86 d6 e2 3b 3e 9d a8 3c 12 41 63 3c 01 4d 1b 3c
       0.006922546 0.020582791 0.013870494 0.009478808
0001e0 76 ff e4 bb 99 fb 8e 3c 3d 6d 95 bc 84 b9 87 3c
       -0.006988461 0.017453955 -0.018240565 0.016567953
0001f0 11 9f 97 bc 0c 9a ad ba 8c f0 d3 bb be 59 44 3b
       -0.018508466 -0.0013244762 -0.0064678844 0.0029960717
000200 ee e1 9c bc 53 67 1c 3c 21 8d 90 bc 7f 4d e9 bb
       -0.0191507 0.009546119 -0.01764542 -0.007119834
000210 83 18 27 3b bd 5a 47 3c 9e 09 2e 3c 58 9d 1e 3c
       0.0025496788 0.01216763 0.01062241 0.009681068
000220 fd 43 92 3c 1b c5 38 3c f1 07 bb bb 98 bd 08 3c
       0.017854685 0.011277462 -0.005707734 0.008345984
000230 ab 31 c6 3b 26 ac 4b 3c 9c 94 61 3c 58 2f 3d ba
       0.0060484014 0.01243118 0.013768341 -0.00072168326
000240 9d 19 6c 3c 10 f4 71 3b c9 0e 80 3c cf 9b 9f bc
       0.014410404 0.0036919154 0.01563205 -0.019483475
000250 a7 48 81 3c c1 8f b0 3b 65 f2 e8 3c 47 10 69 bb
       0.015781714 0.0053882306 0.028435895 -0.003556268
000260 7c c8 82 ba cb 0c 62 bb 99 26 87 3c ea ff 2d bc
       -0.0009977962 -0.0034492488 0.016497897 -0.010620097
000270 1f 41 10 3b 72 1a 25 3c 0c ef 91 3c 79 2f 1e bc
       0.0022011471 0.010077106 0.017814182 -0.009654873
000280 53 44 6b 3c 5e d1 43 bb 4a ce c0 bc 10 fe 9d 3a
       0.0143595515 -0.0029879431 -0.023535866 0.0012053866
000290 89 eb 56 3b 8f b7 5e bc 0a e6 c4 bb e9 30 49 3c
       0.0032794198 -0.0135935685 -0.006008868 0.0122797275
0002a0 69 60 09 3c ad 81 ba 3b 31 5c 8d 3c de ab 5b bc
       0.008384802 0.005691728 0.017255874 -0.013407676
0002b0 1b d4 4f bc ca 3f 77 bc cc dc e1 bb b5 2e 1f bc
       -0.012684847 -0.015090892 -0.006892776 -0.009715726
0002c0 be e2 cb bb 73 a1 29 bb fd 26 8b 3c 68 fc 72 3c
       -0.006222098 -0.0025883585 0.016986364 0.014830686
0002d0 dd cf 3c 3c cf ad a1 bc 15 4a 04 bc a5 2e 38 3a
       0.011524168 -0.019736199 -0.008074303 0.00070259935
0002e0 cc 7b b5 3b ed 5f 86 bb 68 ac 50 3c c9 8e 52 bc
       0.0055384394 -0.0041007907 0.012736417 -0.012851425
0002f0 4c 7a 46 3c 40 a2 c5 bc 2a 92 16 bc 8c c7 1a 3c
       0.012114119 -0.024125218 -0.009190122 0.00944699
000300 99 db ec 3b 6a 97 73 3c 96 ca c8 3c c5 35 1c 3c
       0.0072283265 0.014867643 0.024510663 0.009534304
000310 9d 8b 2a bc 9a 91 25 3c 6b fe 21 3b 95 25 aa 3c
       -0.010409263 0.010105515 0.0024718295 0.020769874
000320 96 f7 b0 3c 16 be 05 b9 ba 53 81 bc 70 d3 9e bb
       0.021602433 -0.00012754681 -0.015786994 -0.0048469827
000330 13 db 87 bc ad aa 9d bb 58 80 e8 3b de 33 9b bb
       -0.016583955 -0.004811606 0.007095378 -0.0047364077
000340 4d 98 90 3b 75 23 04 bb c6 1e f9 3b 53 0a 51 3b
       0.004412687 -0.0020162736 0.0076025454 0.0031897023
000350 2f 59 2d bc b4 e7 9f bb f8 e8 45 bb 48 09 a9 3c
       -0.010580345 -0.004879916 -0.0030198675 0.020634308
000360 0a d8 c6 3c 06 8d 5b bc c0 c4 58 bc 0a ac 5f bc
       0.024272937 -0.013400322 -0.013230503 -0.013651857
000370 a7 1d a4 39 af 14 89 3c 62 e4 28 ba 30 04 dd 3b
       0.0003130261 0.016733496 -0.0006442723 0.006744884
000380 34 f6 16 3c c2 27 8d ba 06 71 25 ba 85 61 54 bc
       0.009213973 -0.0010769295 -0.00063110923 -0.012962704
000390 49 2e 8f 3c 1f 35 c9 3c ef 7b a2 bc 55 37 2c bc
       0.017478125 0.024561463 -0.019834487 -0.010511239
0003a0 07 fb 91 3b 2b 09 b7 3b 55 2b 4c bb f6 b7 65 3b
       0.0044549736 0.0055858097 -0.0031153758 0.0035052276
0003b0 83 29 1c bc 4b 19 aa bb 43 5b fc ba 9e fe 17 bb
       -0.009531382 -0.0051910034 -0.0019253272 -0.0023192535
0003c0 f2 f7 04 3c 91 e2 b2 bc 72 11 1d bc 9b 37 c2 bb
       0.008115755 -0.02183655 -0.009586679 -0.005927039
0003d0 38 81 99 3b 9b a3 46 3c ab 73 d0 3c 9f 97 8d bc
       0.0046845935 0.0121239675 0.02544578 -0.017284213
0003e0 d8 82 0e bc 63 47 ab bb c3 a4 8f 3c 82 e1 75 3c
       -0.008698188 -0.005227016 0.01753462 0.0150073785
0003f0 2d 69 6f bc cf 2a 7d 3c 0b 52 e8 3b 16 60 82 3c
       -0.014612478 0.015452101 0.0070898584 0.015914958

1.bias f4 [4]
000000 a0 e8 76 bb 1c 52 e1 3c 75 3c 5c bc 74 27 9d bc
       -0.0037675276 0.027504973 -0.013442148 -0.019183852
