test_outputs/checkpoints/last_model.pth (torch, 51133 bytes, 2 tensors)

1.weight f4 [4, 3072]
000000 4f 65 9e 3c 2c f2 07 3c da c8 0a bb 35 fd 50 3c
       0.019335417 0.008297484 -0.0021176846 0.012755682
000010 a7 59 e8 bb a9 5a b0 3c 7e 01 2f bc e1 31 3d 3c
       -0.0070907655 0.021527605 -0.010681508 0.011547537
000020 f6 57 af 3c 34 85 4e 3c 95 b4 03 bc 7e 65 a7 bb
       0.021404248 0.012605 -0.00803866 -0.0051085344
000030 82 00 88 bc 93 12 2f bc 9f 5e 03 bc 64 56 8a 3b
       -0.016601805 -0.010685581 -0.008018165 0.0042217243
000040 58 ec 7c bc c0 7f ac 3b 9b c9 e4 bc 4b 99 5a 3c
       -0.015437208 0.0052642524 -0.027928164 0.013342212
000050 54 5a 11 bc 2a 60 d3 bc 72 de 8b bc 16 ba 61 3b
       -0.008871634 -0.02580269 -0.017073844 0.0034443191
000060 f0 00 93 bc 69 47 33 bc 77 c5 3f 3b eb 78 98 3c
       -0.017944783 -0.0109423185 0.0029261985 0.018612346
000070 94 c2 25 3c 12 67 d2 bb 2a 47 25 3c c6 28 bf 3b
       0.010117192 -0.0064209783 0.010087768 0.005833718
000080 5b 68 37 bc 7e f1 f8 3c bc 65 58 3c 98 c0 3c bc
       -0.011194314 0.03038859 0.013207849 -0.011520527
000090 56 85 43 3b eb c9 5b bc 31 76 1f 3b d8 5d 0e bb
       0.0029834113 -0.01341484 0.0024331922 -0.0021723416
0000a0 f3 8f c9 3b 66 66 cf 3b b1 e7 be 3a 46 03 62 3a
       0.0061511933 0.0063293455 0.0014564899 0.00086217036
0000b0 37 f2 a2 3c 2a c4 9b 3b 0f 1e 19 3c 8c 82 91 bb
       0.019890888 0.004753609 0.009345545 -0.004440611
0000c0 b6 c9 1c bc 3b d7 7d bc c4 b5 05 bd b2 9e 27 3c
       -0.009569576 -0.0154932095 -0.03264405 0.010230707
0000d0 34 92 7a bb 67 32 81 3c 63 41 f8 bb 30 1c 15 3c
       -0.0038234117 0.015771104 -0.007576154 0.009100959
0000e0 4a 34 90 3c cf ca df bc c5 e6 a1 bc 81 42 52 ba
       0.017603058 -0.027318386 -0.01976336 -0.0008020774
0000f0 96 a2 09 bc fc 33 78 3c 51 9e ac 3c 35 42 20 bb
       -0.00840058 0.015149113 0.021071585 -0.0024453525
000100 e7 3b 9c bc 6d 35 36 3c 2a 9f 19 3c a9 5b 3a bb
       -0.019071532 0.011121136 0.009376327 -0.0028435981
000110 0f 02 e9 bb 4e c4 d3 bb a9 c0 5c 3c 2c 80 57 3c
       -0.007110841 -0.0064626103 0.013473668 0.013153117
000120 c4 f0 5d 3c 20 32 52 3c ab 0b 04 bb 94 4c 32 3c
       0.0135461725 0.012829334 -0.0020148556 0.010882515
000130 1c 32 1d bb 30 c7 d3 3a 83 75 96 bb f3 a1 98 bc
       -0.0023986166 0.0016157385 -0.004591645 -0.01863191
000140 f5 b5 96 3c 94 97 bb 3c bc 9c 0b bb 00 75 8b 3b
       0.01839731 0.022899427 -0.0021303138 0.004255891
000150 3b b7 3a 3c 71 f4 3f bc fb ae 3c 3b 02 a6 c6 bc
       0.011396225 -0.011715994 0.002879082 -0.02424908
000160 f7 e6 a1 bc 32 76 29 3c 44 14 80 bc 26 eb e6 3c
       -0.019763453 0.010343121 -0.015634663 0.0281883
000170 db 1c 4c 3c 27 ff ca bc 72 8c e6 3a 27 88 c7 bb
       0.012458052 -0.02477987 0.0017589463 -0.0060892287
000180 ee 18 8d bc d8 a5 72 3c d0 19 46 3c bc 9c 95 3c
       -0.017223801 0.014810048 0.012091115 0.018263213
000190 e7 ec b2 3a b3 47 a3 3c c7 54 0a 3b 06 17 37 3c
       0.0013650925 0.01993165 0.002110766 0.011174923
0001a0 d4 f6 82 3c 20 ab 8f 3c a7 80 84 3b ad 6d 40 bb
       0.015986837 0.017537653 0.004043657 -0.0029362247
0001b0 c6 83 1f 3c 3f 97 9b 39 75 d9 59 ba 10 3d 38 3c
       0.009736007 0.0002967659 -0.00083102967 0.011245027
0001c0 7c 52 be 3b 1d 0b ee bc 5b 76 45 bc 68 88 07 3c
       0.0058081727 -0.029058034 -0.012052144 0.008272268
0001d0 50 d5 e2 3b 8c 9c a8 3c 98 41 63 3c 64 4d 1b 3c
       0.0069224015 0.02058246 0.013870619 0.009478901
0001e0 1c 00 e5 bb 15 fb 8e 3c 3c 6c 95 bc 8a b9 87 3c
       -0.0069885384 0.01745371 -0.018240087 0.016567964
0001f0 b0 9f 97 bc ca 94 ad ba 44 f2 d3 bb c0 4c 44 3b
       -0.018508762 -0.0013243195 -0.0064680893 0.0029952973
000200 e7 e1 9c bc 18 66 1c 3c 29 8d 90 bc 6c 4d e9 bb
       -0.019150687 0.009545825 -0.017645435 -0.007119825
000210 c3 15 27 3b bb 5b 47 3c ea 08 2e 3c 36 9e 1e 3c
       0.0025495149 0.012167866 0.010622242 0.009681275
000220 a4 42 92 3c 35 c5 38 3c 7f 07 bb bb 9b bd 08 3c
       0.017854042 0.011277487 -0.0057076807 0.008345987
000230 93 34 c6 3b ba ac 4b 3c d9 92 61 3c 90 36 3d ba
       0.006048748 0.012431318 0.013767921 -0.0007217908
000240 f0 1a 6c 3c 0d f1 71 3b c0 0f 80 3c fc 9b 9f bc
       0.014410719 0.003691736 0.01563251 -0.019483559
000250 83 48 81 3c 15 93 b0 3b 73 f2 e8 3c b2 14 69 bb
       0.015781647 0.0053886273 0.028435921 -0.0035565314
000260 70 cc 82 ba 36 0a 62 bb fd 25 87 3c 9d 01 2e bc
       -0.000997914 -0.003449095 0.016497606 -0.010620502
000270 87 3a 10 3b 9a 19 25 3c 23 ee 91 3c 63 31 1e bc
       0.0022007541 0.010076905 0.017813748 -0.009655329
000280 47 45 6b 3c fb ca 43 bb c7 ce c0 bc d0 ff 9d 3a
       0.014359779 -0.0029875624 -0.0235361 0.0012054387
000290 68 ec 56 3b 8f b5 5e bc ca e6 c4 bb 28 31 49 3c
       0.0032794718 -0.013593092 -0.0060089575 0.012279786
0002a0 b9 60 09 3c a0 80 ba 3b 0b 5c 8d 3c 36 ac 5b bc
       0.008384877 0.005691603 0.017255804 -0.0134077575
0002b0 3c d4 4f bc 6c 40 77 bc b5 e1 e1 bb 00 2f 1f bc
       -0.012684878 -0.015091043 -0.0068933615 -0.0097157955
0002c0 9c e2 cb bb 72 a3 29 bb 4f 27 8b 3c 12 fc 72 3c
       -0.0062220823 -0.0025884775 0.016986517 0.014830606
0002d0 af ce 3c 3c 03 ae a1 bc 7d 48 04 bc 8f 16 38 3a
       0.011523887 -0.019736296 -0.008073923 0.00070224045
0002e0 b5 7d b5 3b e1 5e 86 bb e7 ad 50 3c 90 90 52 bc
       0.005538667 -0.004100666 0.012736774 -0.012851849
0002f0 d0 79 46 3c eb a1 c5 bc 86 90 16 bc 9f c7 1a 3c
       0.012114003 -0.02412506 -0.0091897305 0.009447007
000300 f0 dd ec 3b 68 97 73 3c aa ca c8 3c b6 35 1c 3c
       0.0072286054 0.014867641 0.0245107 0.00953429
000310 47 8a 2a bc ed 91 25 3c d6 fa 21 3b 0c 26 aa 3c
       -0.010408944 0.010105592 0.002471616 0.020770095
000320 37 f8 b0 3c 0e af 05 b9 2d 54 81 bc d0 d3 9e bb
       0.021602733 -0.00012749081 -0.015787208 -0.0048470274
000330 81 db 87 bc c6 ab 9d bb 26 81 e8 3b d6 36 9b bb
       -0.01658416 -0.0048117368 0.007095474 -0.0047367616
000340 65 99 90 3b c8 27 04 bb ba 1f f9 3b d5 0a 51 3b
       0.0044128173 -0.0020165313 0.007602659 0.0031897326
000350 54 58 2d bc a4 e5 9f bb 1a e4 45 bb 91 09 a9 3c
       -0.010580141 -0.00487967 -0.0030195774 0.020634444
000360 0f d8 c6 3c 9f 8c 5b bc 4c c3 58 bc f0 aa 5f bc
       0.024272947 -0.013400226 -0.013230156 -0.0136515945
000370 b7 3c a4 39 ab 15 89 3c 70 00 29 ba 7c 03 dd 3b
       0.00031325754 0.016733965 -0.00064469036 0.0067448
000380 c4 f5 16 3c fa 2a 8d ba d0 72 25 ba 6a 62 54 bc
       0.0092138685 -0.0010770254 -0.0006311359 -0.012962917
000390 56 2e 8f 3c 59 35 c9 3c 6d 7c a2 bc d3 38 2c bc
       0.01747815 0.024561571 -0.019834721 -0.010511595
0003a0 53 fb 91 3b 83 0a b7 3b e9 2c 4c bb af b3 65 3b
       0.004455009 0.00558597 -0.0031154698 0.0035049727
0003b0 67 29 1c bc 9a 18 aa bb e3 6e fc ba 07 fb 17 bb
       -0.009531355 -0.005190921 -0.0019259121 -0.0023190395
0003c0 88 f6 04 3c 0d e4 b2 bc 6d 11 1d bc ec 35 c2 bb
       0.008115418 -0.021837259 -0.009586674 -0.005926838
0003d0 67 7f 99 3b c1 a4 46 3c 37 74 d0 3c 66 97 8d bc
       0.004684377 0.012124241 0.02544604 -0.017284106
0003e0 d8 82 0e bc 14 46 ab bb ad a4 8f 3c 8e e0 75 3c
       -0.008698188 -0.00522686 0.017534578 0.015007151
0003f0 ee 6b 6f bc 5d 2b 7d 3c 12 52 e8 3b 4f 5f 82 3c
       -0.014613135 0.015452233 0.0070898617 0.015914587

1.bias f4 [4]
000000 a9 ed 76 bb 5d 53 e1 3c 0e 3d 5c bc c8 27 9d bc
       -0.0037678278 0.027505571 -0.013442291 -0.019184008
